model.tflite (tflite, 9928 bytes, 6 tensors)

model/dense/MatMul/ReadVariableOp/transpose i1 [2, 2304] scale=0.0024293633 zero_point=0
000000 d5 0d f0 07 0f fa a0 c1 21 ee c7 e4 22 f9 bd df
       -0.10446262 0.031581722 -0.038869813 0.017005544 0.03644045 -0.01457618 -0.23321888 -0.15304989 0.08016899 -0.043728538 -0.1384737 -0.06802218 0.08259835 -0.017005544 -0.16276734 -0.08016899
000010 27 f2 9f be 1c de 8f a8 25 f2 a0 b9 27 f0 bc ca
       0.09474517 -0.03401109 -0.23564824 -0.16033798 0.06802218 -0.08259835 -0.27451804 -0.21378398 0.08988644 -0.03401109 -0.23321888 -0.1724848 0.09474517 -0.038869813 -0.1651967 -0.13118562
000020 06 12 0d ed 07 fe 15 fb 05 00 0d f6 f5 fc 29 27
       0.01457618 0.043728538 0.031581722 -0.046157904 0.017005544 -0.0048587266 0.05101663 -0.012146817 0.012146817 0.0 0.031581722 -0.024293633 -0.026722997 -0.009717453 0.0996039 0.09474517
000030 0a f0 f3 fe 11 01 10 ec f6 04 07 e9 ee 19 20 0c
       0.024293633 -0.038869813 -0.031581722 -0.0048587266 0.041299175 0.0024293633 0.038869813 -0.048587266 -0.024293633 0.009717453 0.017005544 -0.055875357 -0.043728538 0.060734082 0.077739626 0.02915236
000040 a2 12 68 55 ab 3f 63 5a c8 18 36 26 c7 3f 52 3e
       -0.22836015 0.043728538 0.25265378 0.20649588 -0.20649588 0.15304989 0.24050696 0.2186427 -0.13604435 0.05830472 0.13118562 0.09231581 -0.1384737 0.15304989 0.1992078 0.15062052
000050 c5 28 48 4b bf 16 74 38 c0 36 71 4c bf 27 76 58
       -0.14333244 0.09717453 0.17491415 0.18220225 -0.15790862 0.053445995 0.28180614 0.13604435 -0.15547925 0.13118562 0.27451804 0.18463162 -0.15790862 0.09474517 0.28666487 0.21378398
000060 dd f1 fe 05 16 e8 ba cc 0e e6 a0 ce 17 ef a8 b5
       -0.08502772 -0.03644045 -0.0048587266 0.012146817 0.053445995 -0.05830472 -0.17005543 -0.12632689 0.03401109 -0.063163444 -0.23321888 -0.121468164 0.055875357 -0.041299175 -0.21378398 -0.18220225
000070 25 de ae b5 1f fc c4 e3 13 db bd cb 2f d6 d2 af
       0.08988644 -0.08259835 -0.1992078 -0.18220225 0.07531026 -0.009717453 -0.1457618 -0.070451535 0.046157904 -0.08988644 -0.16276734 -0.12875625 0.11418007 -0.10203326 -0.111750714 -0.19677843
000080 11 fe 16 fc 24 fd d4 d9 17 ed 12 dd 1d fa e2 fc
       0.041299175 -0.0048587266 0.053445995 -0.009717453 0.087457076 -0.00728809 -0.10689199 -0.09474517 0.055875357 -0.046157904 0.043728538 -0.08502772 0.070451535 -0.01457618 -0.0728809 -0.009717453
000090 11 10 f5 f7 22 10 f6 fd 1b ec c9 de 0e e4 db eb
       0.041299175 0.038869813 -0.026722997 -0.021864269 0.08259835 0.038869813 -0.024293633 -0.00728809 0.06559281 -0.048587266 -0.13361499 -0.08259835 0.03401109 -0.06802218 -0.08988644 -0.05101663
0000a0 d7 fd 3d 33 de 1e 31 36 e0 15 3a 30 d0 25 5d 4b
       -0.0996039 -0.00728809 0.14819117 0.12389753 -0.08259835 0.0728809 0.119038805 0.13118562 -0.077739626 0.05101663 0.14090307 0.11660944 -0.11660944 0.08988644 0.2259308 0.18220225
0000b0 f4 13 2a 1b 09 0d 22 27 00 1c 3b 3e e5 fc 21 1e
       -0.02915236 0.046157904 0.10203326 0.06559281 0.021864269 0.031581722 0.08259835 0.09474517 0.0 0.06802218 0.14333244 0.15062052 -0.06559281 -0.009717453 0.08016899 0.0728809
0000c0 ea ec 12 f9 1b e8 be de 21 fd eb f2 01 f8 df dd
       -0.053445995 -0.048587266 0.043728538 -0.017005544 0.06559281 -0.05830472 -0.16033798 -0.08259835 0.08016899 -0.00728809 -0.05101663 -0.03401109 0.0024293633 -0.019434907 -0.08016899 -0.08502772
0000d0 f2 fc fe fc 08 14 19 2d f1 0a 09 08 06 ef d0 d3
       -0.03401109 -0.009717453 -0.0048587266 -0.009717453 0.019434907 0.048587266 0.060734082 0.10932135 -0.03644045 0.024293633 0.021864269 0.019434907 0.01457618 -0.041299175 -0.11660944 -0.10932135
0000e0 02 f3 f5 fc 13 e9 d4 e7 05 e3 f3 e5 0b fd 00 e7
       0.0048587266 -0.031581722 -0.026722997 -0.009717453 0.046157904 -0.055875357 -0.10689199 -0.060734082 0.012146817 -0.070451535 -0.031581722 -0.06559281 0.026722997 -0.00728809 0.0 -0.060734082
0000f0 03 f8 f1 ea 2d e9 ae e7 1d f1 b6 bc 03 e2 d4 e2
       0.00728809 -0.019434907 -0.03644045 -0.053445995 0.10932135 -0.055875357 -0.1992078 -0.060734082 0.070451535 -0.03644045 -0.17977288 -0.1651967 0.00728809 -0.0728809 -0.10689199 -0.0728809

model/conv2d_2/Conv2D/ReadVariableOp i1 [4, 1, 1, 16]
000000 a1 0d 39 a6 b2 5b 6d 16 f8 12 aa e1 5a ed 71 81
       -95 13 57 -90 -78 91 109 22 -8 18 -86 -31 90 -19 113 -127
000010 63 16 13 7f f5 55 54 58 21 5b f6 ff 0b 06 d3 3f
       99 22 19 127 -11 85 84 88 33 91 -10 -1 11 6 -45 63
000020 52 cf da 39 7f d0 1d d1 0d db 3e ff 79 c2 03 61
       82 -49 -38 57 127 -48 29 -47 13 -37 62 -1 121 -62 3 97
000030 59 2e ba 40 68 1e ec d4 74 4f fb c5 7f 45 54 6e
       89 46 -70 64 104 30 -20 -44 116 79 -5 -59 127 69 84 110

model/conv2d_1/Conv2D/ReadVariableOp i1 [16, 1, 1, 8]
000000 04 cd ea 4a dc 7f e0 28 7f c6 e5 e0 b9 cc ce 67
       4 -51 -22 74 -36 127 -32 40 127 -58 -27 -32 -71 -52 -50 103
000010 e0 d2 42 81 55 f7 31 4f 31 de 84 7f 99 a3 75 4f
       -32 -46 66 -127 85 -9 49 79 49 -34 -124 127 -103 -93 117 79
000020 2e 25 4d 7f af f1 aa 55 18 47 29 13 fe 93 81 f5
       46 37 77 127 -81 -15 -86 85 24 71 41 19 -2 -109 -127 -11
000030 dc 36 b5 7f cf df 51 e7 f6 ae 37 19 b6 ee 7f f4
       -36 54 -75 127 -49 -33 81 -25 -10 -82 55 25 -74 -18 127 -12
000040 bf f2 19 db d6 7f bc d2 7f d6 9e f0 0a b9 ff 10
       -65 -14 25 -37 -42 127 -68 -46 127 -42 -98 -16 10 -71 -1 16
000050 7a e8 04 07 f5 81 61 e2 fa 7f 5a e3 db df f2 8d
       122 -24 4 7 -11 -127 97 -30 -6 127 90 -29 -37 -33 -14 -115
000060 ef 1e c1 6f 2f 7f e1 39 81 e6 6a fd f8 b2 a4 d1
       -17 30 -63 111 47 127 -31 57 -127 -26 106 -3 -8 -78 -92 -47
000070 b1 08 7f 99 c2 c0 70 ff 08 d3 0d 7f dd 64 c4 1f
       -79 8 127 -103 -62 -64 112 -1 8 -45 13 127 -35 100 -60 31

model/depthwise_conv2d_1/depthwise/ReadVariableOp i1 [1, 3, 3, 8]
000000 dd bc 44 15 0f 61 fa e0 0b be 68 1f 5c 18 81 7f
       -35 -68 68 21 15 97 -6 -32 11 -66 104 31 92 24 -127 127
000010 8b 07 23 55 7f 5c 2d b6 db 43 a9 7f 33 7f b7 32
       -117 7 35 85 127 92 45 -74 -37 67 -87 127 51 127 -73 50
000020 02 b5 44 38 cb 2a bb 32 81 b2 d9 3b 11 5d 48 76
       2 -75 68 56 -53 42 -69 50 -127 -78 -39 59 17 93 72 118
000030 91 7f 7f 36 03 26 76 d8 ab 5b 99 39 0f 79 cc d4
       -111 127 127 54 3 38 118 -40 -85 91 -103 57 15 121 -52 -44
000040 88 b3 20 18 04 e4 a9 25
       -120 -77 32 24 4 -28 -87 37

model/conv2d/Conv2D/ReadVariableOp i1 [1, 1, 1, 8]
000000 81 81 81 7f 81 7f 81 81
       -127 -127 -127 127 -127 127 -127 -127

model/depthwise_conv2d/depthwise/ReadVariableOp i1 [1, 3, 3, 1] scale=0.004833908 zero_point=0
000000 81 7c 35 c8 1a d5 de 08 ea
       -0.61390626 0.5994046 0.25619712 -0.27069885 0.12568161 -0.20785804 -0.16435286 0.038671263 -0.106345974
